model_cnn.pth (torch, 436009 bytes, 8 tensors)

conv1.weight f4 [6, 3, 5, 5]
0	0x3ea812af	0.32826754
1	0x3e1147d2	0.14187554
2	0x3cc4974b	0.023997923
3	0xbd9570d6	-0.07296912
4	0xbdbcc733	-0.09217682
5	0x3e3e1ec8	0.1856643
6	0x3cab9cc7	0.02094878
7	0x3d387319	0.04503164
8	0x3ba92edf	0.005163058
9	0xbe18a3e1	-0.14906265
10	0x3e343adc	0.17600578
11	0x3e2b1152	0.16705826
12	0x3b83877f	0.004013955
13	0xbe17a788	-0.14810002
14	0xbe71bc8d	-0.23607083
15	0x3e31293b	0.17300884
16	0x3d761aa6	0.060084008
17	0xbe032fbc	-0.12811178
18	0xbdb75453	-0.089516304
19	0xbc907035	-0.01763163
20	0x3d8912ed	0.06693063
21	0x3d70f255	0.058824856
22	0xbd148789	-0.03626207
23	0xbd94d80d	-0.07267771
24	0xbe0d7896	-0.13815531
25	0xbd8b8f2b	-0.068144165
26	0xbe10b013	-0.14129667
27	0xbe422173	-0.18958072
28	0x3de741f9	0.1129188
29	0xbc46573d	-0.01210576
30	0xbdcfae5a	-0.10140677
31	0xbd061e14	-0.03274353
32	0xbdda4ecf	-0.10659563
33	0x3d82558d	0.06363974
34	0xbbdfdcac	-0.006831726
35	0xbe4c8efd	-0.1997642
36	0xbe5718d4	-0.21005565
37	0xbe257cd6	-0.16160902
38	0xbdd47afc	-0.1037502
39	0xbdd9c96f	-0.106341235
40	0xbe1c7cad	-0.15281935
41	0xbd8e95ba	-0.06962152
42	0xbddd69ff	-0.10811233
43	0x3e0d4a24	0.13797814
44	0xbd4c5299	-0.04988346
45	0xbcfe8b08	-0.031072155
46	0x3dad978b	0.0847617
47	0xbe028316	-0.12745318
48	0xbd26ebfc	-0.040752396
49	0x3d8a7afb	0.06761738
50	0xbca47940	-0.020077348
51	0xbc840c91	-0.016119273
52	0xbce2a930	-0.027668566
53	0x3e150bbc	0.14555258
54	0x3e5e7935	0.21725924
55	0xbe49d99c	-0.19711918
56	0xbdcbafdd	-0.09945653
57	0xbd9f30b7	-0.077729635
58	0x3e86715d	0.26258364
59	0x3e0508b4	0.12991601
60	0xbe15eb91	-0.14640643
61	0xbe43b1a5	-0.19110735
62	0xbe3ad49f	-0.18245171
63	0x3e596be7	0.21232568
64	0x3e1e7574	0.15474492
65	0xbe42d9f2	-0.19028452
66	0x3daae8d2	0.08345188
67	0xbba7a533	-0.005116129
68	0x3e9b6809	0.3035281
69	0x3e719924	0.23593575
70	0xbbb505c0	-0.005524367
71	0xbd2c5d54	-0.042081192
72	0xbd2b7b04	-0.041865364
73	0xbdc79723	-0.09745624
74	0x3b103741	0.002200559
75	0xbd52eb2a	-0.0514938
76	0xbdb0303a	-0.086029485
77	0xbe1d0831	-0.15335156
78	0xbd4d8b97	-0.05018195
79	0x3b2c6db1	0.0026310498
80	0x3d953fcd	0.0728756
81	0xbb9e8521	-0.0048376475
82	0x3dbe1d59	0.09282941
83	0x3d394e52	0.045240708
84	0xbc7000ed	-0.014648658
85	0x3e0d96ce	0.13827059
86	0x3dfbb47e	0.122902855
87	0x3dedc9e2	0.11610772
88	0x3e459be0	0.19297743
89	0x3e45af35	0.19305117
90	0x3e7c572d	0.2464263
91	0x3ddb8b1c	0.107198924
92	0x3e910207	0.2832186
93	0x3d99bcb5	0.07506696
94	0x3d8970f9	0.06711001
95	0x3dbf8bbe	0.093528256
96	0x3dd164e5	0.10224322
97	0x3d3fd8d9	0.04683766
98	0x3e40d70c	0.18832034
99	0x3c365cb5	0.0111305015
100	0x3e16c378	0.14723003
101	0x3d25b3ae	0.04045456
102	0xbccdee28	-0.025137976
103	0x3d9ceecc	0.076627344
104	0x3ddc84cd	0.10767517
105	0xbd4ca963	-0.049966227
106	0x3def5897	0.11686819
107	0x3dd281e2	0.102786794
108	0x3defccd1	0.117089875
109	0xbd977c53	-0.0739676
110	0xbe0a132d	-0.13483877
111	0x3bc1b134	0.005911017
112	0x3d6c1217	0.05763444
113	0xbd631334	-0.055438235
114	0xbdebcae5	-0.115133084
115	0xbe04ab50	-0.12955976
116	0xbd9ec17b	-0.07751747
117	0xbdb10968	-0.08644372
118	0x3d63f207	0.055650737
119	0xbd436fd0	-0.047714055
120	0x3b1381d4	0.0022507804
121	0xbce57fd4	-0.028015055
122	0xbbd9e750	-0.006649889
123	0xbdb1727e	-0.08664416
124	0x3e07109e	0.13189933
125	0xbc0afa6b	-0.008482556
126	0x3cd46272	0.025925849
127	0x3cf35a68	0.029706195
128	0x3d4fd95c	0.0507444
129	0xbd81d6fc	-0.06339833
130	0xbd6a288a	-0.057167567
131	0xbda809b3	-0.08204975
132	0xbda564b2	-0.08075847
133	0xbe143708	-0.14474118
134	0x3d857480	0.06516361
135	0x3ca1bd8e	0.019743707
136	0xbdce820b	-0.100833975
137	0xbe2afed7	-0.16698776
138	0xbdb27ead	-0.08715568
139	0xbdc89a92	-0.09795107
140	0xbded5d84	-0.11590102
141	0xbca739c8	-0.020413294
142	0xbe419a51	-0.18906523
143	0xbe136bce	-0.14396593
144	0x3dc1e501	0.09467507
145	0xbda54a3f	-0.08070802
146	0xbdfdf0d3	-0.12399449
147	0xbda7bd68	-0.08190423
148	0xbdc5d97b	-0.09660622
149	0xbd12ccd2	-0.035839863
150	0x3dba326d	0.09091649
151	0xbd0cef9d	-0.0344082
152	0xbd1fbc0c	-0.038997695
153	0xbeb783c3	-0.35842714
154	0xbe89eeb7	-0.26939937
155	0x3dab6eac	0.08370718
156	0x3e2664d6	0.16249403
157	0x3e2df972	0.16989687
158	0x3d232230	0.039827526
159	0xbdfba58b	-0.12287434
160	0x3d3d7565	0.046254534
161	0x3d9be639	0.07612271
162	0x3dc11073	0.094269656
163	0x3ea6dae6	0.3258888
164	0xbca294c1	-0.019846322
165	0xbe04940a	-0.12947097
166	0xbde5b470	-0.11216056
167	0xbc7d3620	-0.015454799
168	0x3ced8cf9	0.028997885
169	0x3d4e1b1d	0.050318826
170	0xbca6d8a6	-0.020366978
171	0x3d5ff6f0	0.054678857
172	0xbe035509	-0.12825407
173	0x3d89835a	0.067145064
174	0x3de57fad	0.11205993
175	0xbd0c0a0a	-0.03418926
176	0xbd365488	-0.04451421
177	0xbc9ddeff	-0.019271372
178	0xbec992b7	-0.39369747
179	0xbe38102e	-0.17974922
180	0x3dae922d	0.085239746
181	0x3e04504c	0.12921256
182	0x3c9e58e1	0.01932949
183	0xbd898c7f	-0.06716251
184	0xbcacb8b5	-0.021084169
185	0xbdd7ce68	-0.10537416
186	0xbc3e8d7c	-0.011630412
187	0x3e73a351	0.23792769
188	0x3eb73a4f	0.35786673
189	0x3e337f76	0.17529091
190	0xbdee1ee3	-0.11626985
191	0xbe67eea6	-0.22649631
192	0xbcfe4178	-0.031037077
193	0xbd4ef16d	-0.05052321
194	0x3c2b8af0	0.010470137
195	0x3de0767e	0.109601006
196	0x3d3815f1	0.0449428
197	0xbdda5cc9	-0.106622286
198	0xbd951c66	-0.07280807
199	0x3d3f1c20	0.04665768
200	0x3d93c0ef	0.072145335
201	0x3d72a813	0.05924232
202	0x3d7687be	0.060188048
203	0xbe79da77	-0.24399744
204	0xbe02b371	-0.12763764
205	0x3d90bb42	0.070669666
206	0x3d91a4f4	0.071115404
207	0x3d909f6a	0.07061656
208	0xbc7b3bc7	-0.015334076
209	0xbe1a3210	-0.1505816
210	0xbe15203b	-0.14563076
211	0xbd01914c	-0.031632707
212	0x3e3bee20	0.18352556
213	0x3eb83904	0.35981
214	0x3d898648	0.06715065
215	0xbdf64b89	-0.12026126
216	0xbdf12e36	-0.11776392
217	0xbcd0ffb0	-0.025512546
218	0xbd42d72f	-0.047568496
219	0x3d916e80	0.07101154
220	0x3d7f5bdf	0.062343474
221	0xbd81b147	-0.06332641
222	0xbcf9346c	-0.030420505
223	0xbe04807a	-0.12939635
224	0x3dc95b95	0.09831921
225	0xbe0dbe49	-0.1384212
226	0x3d09eef6	0.033675157
227	0xbe0401ee	-0.12891361
228	0x3bf3aa82	0.0074360976
229	0x3d17e8c0	0.037087202
230	0x3d1ee118	0.038788885
231	0xbdd121fb	-0.102115594
232	0xbdf56e4f	-0.1198393
233	0xbd48a024	-0.048980847
234	0x3d732495	0.05936106
235	0xbd3d51f9	-0.046220753
236	0x3c4103f3	0.011780727
237	0x3e2f4667	0.171167
238	0x3dba07cc	0.090835184
239	0xbde6477a	-0.11244102
240	0xbe2c1cee	-0.16807911
241	0xbe6a27f3	-0.22866802
242	0xbdd1c32e	-0.10242306
243	0xbe97e4c9	-0.29666737
244	0xbe34e4b1	-0.17665364
245	0xbe005af5	-0.12534697
246	0xbe196c78	-0.14982784
247	0xbe73b207	-0.23798381
248	0x3b2b4c9d	0.0026138194
249	0xbde4d8c0	-0.11174154
250	0x3d902de3	0.07040002
251	0x3dba9a24	0.09111431
252	0x3cf079e3	0.029354995
253	0x3e55a9d4	0.20865566
254	0x3d82e732	0.06391753
255	0x3e254928	0.16141188

conv1.bias f4 [6]
0	0x3e6c0794	0.23049766
1	0xbd32684b	-0.043556493
2	0x3cc2749b	0.023737242
3	0x3de20ee8	0.110379994
4	0xbe4c3c9d	-0.19944997
5	0xb9d40eed	-0.00040446912

conv2.weight f4 [16, 6, 5, 5]
0	0xbd45fd47	-0.048337247
1	0x3df2c49e	0.11853908
2	0xbda7d3c5	-0.08194689
3	0x3e75e487	0.24012958
4	0xbcd6bdb7	-0.02621351
5	0x3c0e8894	0.008699555
6	0x3e0f6a04	0.14005286
7	0x3d70a734	0.058753207
8	0x3da4eaa2	0.08052565
9	0x3d8c1c6a	0.06841357
10	0x3d343819	0.04399881
11	0x3cb3b0c1	0.021934869
12	0x3cb52ba3	0.022115534
13	0xbd809008	-0.06277472
14	0x3e26d7d3	0.16293268
15	0xbe671341	-0.22565939
16	0x3c8b028f	0.016968993
17	0xbd635b47	-0.05550697
18	0x3dafbbbf	0.085807316
19	0x3cb65bac	0.02226051
20	0xbe45976c	-0.19296044
21	0xbdc74a81	-0.09731007
22	0xbd471037	-0.048599448
23	0xbcca303e	-0.024681207
24	0xbd39d925	-0.0453731
25	0x3dce0635	0.10059778
26	0x3cb92018	0.022598311
27	0x3df14724	0.11781147
28	0x3e179907	0.14804469
29	0x3e322cce	0.17399904
30	0xbd17b79c	-0.037040338
31	0xbdf6ea68	-0.12056428
32	0xbd10ba0a	-0.03533367
33	0x3dc8c30e	0.09802829
34	0x3e11b81c	0.14230388
35	0xbc321cfd	-0.010871169
36	0xbd5965a2	-0.05307544
37	0xbd60f07f	-0.054916855
38	0x3ccc21aa	0.024918396
39	0x3e004a9a	0.12528458
40	0xbdf35ffb	-0.11883541
41	0xbd89cca1	-0.06728483
42	0xbd90c7c3	-0.070693515
43	0xbe133500	-0.14375687
44	0xbd2d9098	-0.042374223
45	0xbd93559f	-0.07194065
46	0x3cc4ce8e	0.024024274
47	0xbd05cb26	-0.03266444
48	0x3cbabf98	0.022796437
49	0xbca48328	-0.020082071
50	0xbd9d3a36	-0.076771185
51	0x3d927217	0.07150667
52	0xbc9045c6	-0.017611396
53	0x3d0cca2a	0.034372486
54	0x3d96c751	0.07362235
55	0x3dd5a213	0.10431304
56	0x3d519d6d	0.051175524
57	0x3e615a74	0.22007161
58	0x3e2f85eb	0.1714093
59	0x3ca38b9d	0.019964034
60	0x3edee513	0.43534145
61	0x3e1e589c	0.1546349
62	0xbcc1b7b0	-0.02364716
63	0x3e04a7ea	0.12954679
64	0x3e1abfc9	0.15112223
65	0x3d93e148	0.07220703
66	0x3e9dafcb	0.30798182
67	0x3eafa58b	0.34305987
68	0x3df4924e	0.11941968
69	0xbd12ecc9	-0.035870347
70	0x3e415969	0.18881764
71	0x3debc8a1	0.11512876
72	0x3d4e03e3	0.050296675
73	0xbd8a949c	-0.06766626
74	0x3ccc2721	0.024921002
75	0x3dc3a9ff	0.095539086
76	0x3e0e5734	0.13900453
77	0x3e22bf12	0.158932
78	0x3d913aa0	0.0709126
79	0x3dd9ad1a	0.1062872
80	0xbdbe34bc	-0.09287402
81	0x3e37d85b	0.17953627
82	0x3e7616ec	0.24032182
83	0x3e77ce3a	0.24199763
84	0x3d9df3bb	0.077125035
85	0xbd49b17e	-0.049241535
86	0xbdcdb432	-0.10044135
87	0xbde32cdb	-0.1109254
88	0x3cb0b552	0.021570835
89	0x3cad0920	0.021122515
90	0xbdd8cf38	-0.10586399
91	0xbd7cf3f4	-0.06175609
92	0x3d746fc8	0.059676915
93	0x3e09b04e	0.13446161
94	0x3e44aabf	0.1920576
95	0xbe628ff7	-0.2212523
96	0xbda4a85a	-0.08039923
97	0x3cf51aaa	0.029919941
98	0xbccccc61	-0.0249998
99	0x3d60a71a	0.05484686
100	0xbd24659e	-0.040135972
101	0x3d789ebb	0.060698252
102	0x3da2d253	0.079502724
103	0x3d7cb5a7	0.061696675
104	0x3bf2c533	0.007408762
105	0xbc7c90bc	-0.015415367
106	0xbdb2363b	-0.0870175
107	0x3c6e4b23	0.014544281
108	0x3dac6dd4	0.084193856
109	0x3d9046b4	0.070447356
110	0xbe05cea5	-0.1306711
111	0xbd21f7d1	-0.039542977
112	0xbdd5a2fa	-0.10431476
113	0xbdaf536d	-0.08560834
114	0x3c2a76f3	0.010404336
115	0xbdfc4926	-0.123186395
116	0x3d4a1988	0.049340755
117	0x3ddd0741	0.10792399
118	0x3d909c48	0.07061058
119	0x3d0d5e15	0.03451355
120	0x3e261fb3	0.1622303
121	0xbd056957	-0.032571163
122	0x3c7726e8	0.01508496
123	0x3c4ba254	0.012428839
124	0xbbad2b76	-0.005284722
125	0x3d7b6d2d	0.061383415
126	0x3c6b1f1e	0.014350681
127	0xbd57ed71	-0.052716676
128	0x3c5b4e6e	0.013385398
129	0x3cce925b	0.025216272
130	0xbdfe6bd2	-0.12422909
131	0x3d024d65	0.03181209
132	0xbdc7e434	-0.09760323
133	0xbda3e1c6	-0.08002047
134	0xbd9e6697	-0.07734411
135	0xbcb5b4ec	-0.022180997
136	0xbe45768f	-0.19283508
137	0xbdc1ef46	-0.09469466
138	0xbd4e35a5	-0.05034413
139	0xbc87f6c1	-0.016597154
140	0xbd5a1827	-0.05324569
141	0xbd3d779b	-0.046256643
142	0xbd6e4ca1	-0.058178548
143	0xbdda5c92	-0.10662188
144	0xbd1a6a11	-0.03769881
145	0xbcc1668f	-0.023608474
146	0xbdfd613b	-0.12372061
147	0xbe054533	-0.13014679
148	0xbd6fcf7c	-0.058547482
149	0xbd764191	-0.060121123
150	0xbd265994	-0.040612772
151	0xbe127496	-0.14302287
152	0xbded33f1	-0.11582173
153	0xbe0579cf	-0.13034748
154	0xbdf2ec0b	-0.11861428
155	0xbe1594f3	-0.14607601
156	0xbe09ea12	-0.13468197
157	0xbdcfc4c9	-0.10144956
158	0xbe19f27c	-0.15033907
159	0x3c1a5df3	0.009421813
160	0x3e4f0b0f	0.20219062
161	0x3d754b9b	0.059886556
162	0x3bf46c2a	0.007459183
163	0x3e523aa9	0.2053019
164	0x3e8bd316	0.27309483
165	0x3e1b394d	0.15158577
166	0x3c46dd22	0.012137683
167	0x3ebcb13c	0.3685397
168	0x3ee8b5d6	0.4545123
169	0x3ef31b0d	0.47481576
170	0xbe657764	-0.22408825
171	0xbe872464	-0.2639495
172	0x3d0a3e14	0.03375061
173	0x3e26b469	0.16279759
174	0x3d8baf91	0.06820596
175	0xbe287969	-0.16452564
176	0xbe69ef78	-0.22845256
177	0xbe5be0fe	-0.21472546
178	0xbe1d25b5	-0.15346415
179	0xbe84e145	-0.25953117
180	0x3ca99c7d	0.020704502
181	0x3d409238	0.047014445
182	0x3e418aa3	0.18900542
183	0x3e052ba2	0.13004926
184	0x3d70c669	0.05878297
185	0x3d0d3e49	0.034483228
186	0x3e480f10	0.19536996
187	0x3eb50721	0.35357
188	0x3ec4d3a7	0.38442728
189	0x3dc93824	0.09825161
190	0x3d14d835	0.036339004
191	0x3e23657e	0.15956685
192	0x3e89bd11	0.2690206
193	0x3e4c8c94	0.19975501
194	0x3db73808	0.08946234
195	0xbe6fee6b	-0.23430793
196	0xbe0ae78a	-0.13564888
197	0xbcab8942	-0.020939473
198	0xb8d1a114	-9.9959e-05
199	0xbe3adb6f	-0.1824777
200	0x3c8f892b	0.017521461
201	0x3d213062	0.039352782
202	0xbc8b933d	-0.017037982
203	0x3c169924	0.009191785
204	0xbba10aac	-0.0049146023
205	0xbd2b8d88	-0.04188302
206	0xbc07f0be	-0.0082971435
207	0xbd359f7f	-0.04434156
208	0x3c9dc724	0.019259997
209	0x3b5409df	0.0032354516
210	0xbe05a3ed	-0.13050814
211	0xbdd37c30	-0.10326421
212	0xbd06417d	-0.0327773
213	0xbc4306fd	-0.011903522
214	0xbce6edd5	-0.028189579
215	0xbdabddcd	-0.083919145
216	0xbde19f48	-0.110167086
217	0xbd1586b2	-0.03650541
218	0xbd126fb5	-0.035751063
219	0xbc4024a8	-0.0117274895
220	0x3c3b42b5	0.011429478
221	0xbcd32c90	-0.025778085
222	0x3cd748a0	0.026279747
223	0xbc20338e	-0.009777917
224	0xbdb10911	-0.086443074
225	0x3e0ff2d2	0.14057472
226	0x3dd865a8	0.105662644
227	0x3dd69143	0.10476925
228	0x3d188b6b	0.037242334
229	0x3cda0651	0.02661434
230	0xbc2ad5c5	-0.010426943
231	0xbdfef204	-0.124485046
232	0xbdf08dd2	-0.117458
233	0xbd941525	-0.072305955
234	0xbcafa356	-0.02144019
235	0xbd8a138c	-0.067420095
236	0xbe892139	-0.2678316
237	0xbeb6a25d	-0.35670748
238	0xbec1949e	-0.37808698
239	0xbdfe2f11	-0.12411321
240	0x3d52c086	0.051453136
241	0xbd3c4844	-0.045967355
242	0xbe604f57	-0.21905266
243	0xbe0386be	-0.12844369
244	0x3bff4d5a	0.0077912034
245	0x3d9efb3f	0.07762765
246	0x3d8c99d3	0.06865277
247	0x3d0bc329	0.034121666
248	0x3c5065a5	0.012719546
249	0x3e2af7fd	0.16696163
250	0xbd40512f	-0.046952423
251	0xbd917fdf	-0.071044676
252	0xbd1048d9	-0.035225723
253	0xbd84dc01	-0.06487275
254	0x3a6aeb76	0.0008961478
255	0xbc8c4afb	-0.017125597

conv2.bias f4 [16]
0	0xbe83a38a	-0.25710708
1	0xbc9fbe09	-0.019499796
2	0x3e4957d0	0.19662404
3	0x3d60bf53	0.05486996
4	0x3ea850a7	0.32874033
5	0xbe476ede	-0.19475886
6	0xbdb61e0e	-0.08892451
7	0xbd8c1737	-0.068403654
8	0xbe6fb123	-0.23407416
9	0xbe02a415	-0.12757905
10	0xbd7084be	-0.058720343
11	0x3e9c5b0d	0.30538216
12	0x3e79ff3b	0.24413769
13	0xbe057b5a	-0.13035336
14	0x3cd23243	0.025658732
15	0xbc2b874e	-0.010469271

fc1.weight f4 [256, 400]
0	0x3d82352e	0.063577995
1	0xbc9580cd	-0.018249894
2	0x3d4cde12	0.05001647
3	0x3dd1ef0a	0.10250671
4	0xbdf79fcf	-0.12091028
5	0x3eb8533d	0.36001006
6	0x3e6ba584	0.23012358
7	0x3d8ea046	0.069641635
8	0x3cd2be1a	0.025725413
9	0x3e2396e8	0.15975535
10	0x3e5e99f1	0.21738411
11	0x3c89fe06	0.01684476
12	0x3d565b4d	0.052333165
13	0x3c04ef27	0.008113659
14	0x3dd584d3	0.10425725
15	0x3dddb79f	0.108260386
16	0xbe121b72	-0.14268282
17	0xbe5c81c1	-0.21533872
18	0x3c7499e2	0.014929267
19	0x3d593d87	0.053037193
20	0x3dd89645	0.10575537
21	0xbdb0f60c	-0.0864068
22	0xbe22e0f8	-0.15906131
23	0xbca3e509	-0.020006673
24	0x3c7c5c40	0.0154028535
25	0x3d9849c5	0.074359454
26	0xbe85095b	-0.259837
27	0xbef00753	-0.46880588
28	0xbec24710	-0.3794484
29	0x3d45e452	0.048313446
30	0xbc79b7b1	-0.015241549
31	0xbda122fc	-0.07868001
32	0xbe3f5e20	-0.1868825
33	0xbdfc5d0f	-0.12322437
34	0xbc7fb46c	-0.015606981
35	0xbe154cac	-0.14580029
36	0x3c9b309f	0.018944083
37	0xbe169206	-0.14704141
38	0xbd1ec621	-0.03876317
39	0x3abf9b0e	0.0014618353
40	0xbc26daed	-0.010184032
41	0x3a243469	0.0006263913
42	0xbe1279e0	-0.14304304
43	0xbe3ae319	-0.18250693
44	0xbe04983d	-0.129487
45	0xbe17c550	-0.14821362
46	0xbe170953	-0.1474965
47	0xbe915e99	-0.28392485
48	0xbe99a9b9	-0.300123
49	0xbc959c71	-0.018263074
50	0xbd98c9b9	-0.074603505
51	0x3ce3e6d0	0.02782002
52	0xbbc5c396	-0.0060352786
53	0xbe889656	-0.26677197
54	0xbe1ec3f5	-0.15504439
55	0x3ea1a8eb	0.31574187
56	0x3e189090	0.14898896
57	0x3ddeda4f	0.10881483
58	0x3e414d60	0.18877172
59	0x3e11da12	0.14243343
60	0x3dd36e65	0.103237905
61	0x3c04f982	0.008116128
62	0x3d83c0a0	0.06433225
63	0x3e72890d	0.23685093
64	0x3ddc68ca	0.107621744
65	0xbe52ff3b	-0.20605175
66	0xbe268fff	-0.16265868
67	0xbe9532fc	-0.2914046
68	0xbcb01dab	-0.021498522
69	0xbdfee272	-0.12445535
70	0xbe40bcac	-0.18821973
71	0xbe488e19	-0.19585456
72	0xbda7c330	-0.08191526
73	0xbd65421c	-0.05597125
74	0xbdfa4139	-0.122194715
75	0x3d3736fa	0.044730164
76	0x3e26e13b	0.16296856
77	0x3e12e452	0.1434491
78	0x3d916331	0.070989974
79	0x3e11b8d8	0.14230669
80	0xbe552793	-0.20815878
81	0xbdf87bcf	-0.121329896
82	0xbd9484aa	-0.07251866
83	0xbe195116	-0.14972338
84	0x3d5f3f1e	0.054503553
85	0xbe100d50	-0.14067578
86	0x3c6c2726	0.014413631
87	0x3e66aedd	0.22527643
88	0x3e0645b1	0.13112523
89	0x3e3d9b40	0.18516254
90	0xbca9efaa	-0.020744164
91	0x3e8139bf	0.2523937
92	0x3e9a4a22	0.30134684
93	0x3ca31191	0.019905837
94	0x3d8e0f5a	0.06936522
95	0xbde3ea00	-0.11128616
96	0xbd768629	-0.06018654
97	0x3e1650a0	0.14679193
98	0xbd03a13f	-0.032136198
99	0x3b766370	0.003759589
100	0xbe56ecc0	-0.2098875
101	0x3d6b1f96	0.05740317
102	0xbd55b44c	-0.052173898
103	0xbcb76090	-0.022384912
104	0xbc94ab6e	-0.01814815
105	0xbeb89d2a	-0.36057407
106	0xbe2f8f65	-0.17144544
107	0xbe842af2	-0.25814015
108	0xbd124d66	-0.035718344
109	0xbe209809	-0.15682997
110	0xbe7b4def	-0.24541448
111	0xbd8fccdf	-0.07021498
112	0xbdc20910	-0.09474385
113	0xbe1b2a9c	-0.15152973
114	0xbd268360	-0.040652633
115	0x3d562a45	0.052286405
116	0x3db2f22f	0.08737599
117	0x3dcfee73	0.101529025
118	0x3d846b3f	0.06465768
119	0xbdc00d63	-0.09377553
120	0x3e5d2318	0.21595418
121	0x3daf7efc	0.08569142
122	0x3d1f85d9	0.038946006
123	0x3d1f7e02	0.03893853
124	0x3e09d665	0.13460691
125	0x3daaf69b	0.083478175
126	0x3da9afa8	0.08285457
127	0x3d0b3fda	0.03399644
128	0xbd7f357c	-0.062306866
129	0xbd8e37bb	-0.069442235
130	0x3d81f22a	0.06345017
131	0x3c5a3dfd	0.013320443
132	0x3c95db9c	0.018293194
133	0xbd12ca2b	-0.035837334
134	0xbd2ca14d	-0.042146016
135	0x3e1df021	0.15423633
136	0xbd75781c	-0.059929
137	0xbdcb7620	-0.0993464
138	0x3d414198	0.047181696
139	0x3e2342da	0.1594347
140	0x3e2061e7	0.15662347
141	0x3d8538bd	0.065049626
142	0x3c2930fd	0.010326621
143	0x3e0dd13e	0.13849351
144	0x3e056e0f	0.13030265
145	0x3dadfaba	0.08495088
146	0x3b8e23fa	0.004337785
147	0xbd6e3c2c	-0.058162853
148	0xbd3ae7c2	-0.045631178
149	0x3d406aa4	0.0469767
150	0xbbc389bb	-0.0059673465
151	0xbd16b901	-0.036797527
152	0xbc0e0f40	-0.008670628
153	0x3d188b83	0.037242424
154	0xbc8cc5cc	-0.01718416
155	0xbd2d4598	-0.042302698
156	0x3d1138e7	0.035454657
157	0xbd4d0c4f	-0.050060567
158	0x3a15f40f	0.00057202665
159	0x3c6bcc7b	0.014392014
160	0xbbde812a	-0.0067903
161	0x3d4d5e53	0.050138783
162	0x3d3bfb99	0.04589424
163	0xbcc0ff80	-0.023559332
164	0xbbfb0c53	-0.0076613813
165	0xb99c5b7a	-0.00029822794
166	0xbb30aa3c	-0.0026956936
167	0x3d340f84	0.04396011
168	0x3d189b99	0.037257764
169	0x3d3013bd	0.042987574
170	0x3d3ab78b	0.045585196
171	0xbd09076c	-0.033454344
172	0x3cdcb217	0.026940389
173	0xbcb40e57	-0.021979494
174	0xbd01624f	-0.031587895
175	0x3c88cd43	0.016699439
176	0x3cfe4e10	0.031043082
177	0x3cbce110	0.023056537
178	0x3c330460	0.010926336
179	0xbbe42c21	-0.0069632684
180	0xbd039b5b	-0.03213058
181	0x3ccc3170	0.024925917
182	0x3d402294	0.046907976
183	0x3d36e8cf	0.044655617
184	0x3d2d6fa2	0.04234279
185	0x3c194b9a	0.009356404
186	0xbd41cb1d	-0.047312845
187	0x3c78edda	0.015193427
188	0xbc7724c7	-0.015084452
189	0xbc11d5c7	-0.008901066
190	0x3cf87297	0.030328078
191	0xbd33285a	-0.043739654
192	0x3c2f5680	0.010701776
193	0xbcef1c4a	-0.029188294
194	0x3ce696c3	0.02814806
195	0x3cbecc97	0.023290915
196	0xbc8209e0	-0.01587385
197	0xbd0aea82	-0.03391505
198	0xbd04813a	-0.032349803
199	0xbbaea216	-0.0053293807
200	0xbe8d2818	-0.27569652
201	0xbe75b7c8	-0.23995888
202	0xbec6b4f2	-0.38809925
203	0xbe5a0b41	-0.21293356
204	0xbe1ec60a	-0.15505233
205	0xbe48d8d8	-0.1961397
206	0x3bf4d742	0.00747195
207	0x3d2bdabd	0.041956652
208	0x3e095896	0.13412699
209	0x3dbc9157	0.09207409
210	0xbbf307c6	-0.007416698
211	0x3e155d85	0.14586456
212	0x3d16520e	0.036699347
213	0x3e2453c3	0.16047578
214	0x3e0a4f7b	0.13506882
215	0x3cfe736e	0.0310609
216	0x3cbc6ccf	0.023001103
217	0xbde807cf	-0.11329614
218	0x3d4d0760	0.05005586
219	0x3e59ee58	0.21282327
220	0x3d9d3f92	0.07678141
221	0xbde72939	-0.112871595
222	0xbdfc6dcd	-0.1232563
223	0x3cf9d222	0.030495707
224	0x3e4307db	0.19045965
225	0x3e0059d5	0.12534268
226	0x3cdab2a6	0.026696514
227	0xbda6e68d	-0.08149443
228	0x3d991257	0.07474201
229	0xbdabbd24	-0.08385685
230	0xbba78259	-0.005111974
231	0xbe09f0a3	-0.13470702
232	0xbdc1b450	-0.0945822
233	0xbd53066b	-0.051519793
234	0x3b0f5b0e	0.0021874341
235	0xbe8e19a2	-0.2775393
236	0xbbf55ec1	-0.007488102
237	0x3da61b05	0.08110622
238	0xbe4d9c3b	-0.20079128
239	0xbe5848d3	-0.2112153
240	0xbd65edd1	-0.056135003
241	0x3e5f4862	0.21804956
242	0x3e95ee57	0.292834
243	0x3bba3843	0.0056829765
244	0xbe57c763	-0.21072154
245	0xbbe7d4f5	-0.007074947
246	0x3e632e44	0.22185618
247	0x3e40ed85	0.18840607
248	0xbdc54a80	-0.0963335
249	0xbdb34330	-0.087530494
250	0xba96eecd	-0.001151526
251	0xbd27d751	-0.040976826
252	0x3cd7a8b3	0.02632556
253	0x3bc0f4ef	0.0058885734
254	0x3b36507d	0.002781897
255	0xbd2e544a	-0.042560853

fc1.bias f4 [256]
0	0xbd305d65	-0.043057818
1	0x3ee5ba81	0.44868854
2	0x3ede59fc	0.43428028
3	0x3e2917db	0.16513006
4	0xbd5d4bd9	-0.054027412
5	0xbc32d501	-0.010915042
6	0xbe5db53e	-0.2165117
7	0xbd5e4e2e	-0.054273777
8	0xbe83f13c	-0.25769985
9	0xbd84fcc2	-0.06493522
10	0xbba8683f	-0.00513938
11	0x3ece2f35	0.4027039
12	0x3e9c1816	0.30487126
13	0xbe3ab72a	-0.18233934
14	0xbd3c0602	-0.045904167
15	0x3ed03de3	0.40672216
16	0xbd213e40	-0.039366007
17	0xbd85b0d1	-0.06527866
18	0x3bd77a2f	0.0065758447
19	0xbd9b4f94	-0.07583538
20	0x3ca67d7e	0.020323511
21	0xbdee31b1	-0.11630572
22	0xbd07afdf	-0.033126708
23	0x3eba39a9	0.36372116
24	0x3e40c65c	0.18825668
25	0xbd9945de	-0.07484029
26	0xbe445b4f	-0.19175456
27	0xbd38cbef	-0.04511636
28	0x3e09aec2	0.13445571
29	0x3e4c1770	0.19930816
30	0xbe8a83cb	-0.27053675
31	0x3ebf0b2e	0.37313217
32	0x3ea26fa3	0.31725797
33	0x3c70ea33	0.014704275
34	0x3efe4fc9	0.49670246
35	0xbd16d97b	-0.0368285
36	0xbdae7d1c	-0.085199565
37	0x3ede35e2	0.43400484
38	0xbe446e79	-0.19182767
39	0xbcf7497b	-0.030186405
40	0xbe3b619f	-0.18298958
41	0x3e176ab0	0.14786792
42	0x3ba9cbdc	0.0051817726
43	0xbd86e4b4	-0.065865904
44	0xbd9c9f8b	-0.07647618
45	0x3a75b5e9	0.0009373115
46	0xbda479f8	-0.08031076
47	0x3ee8eaab	0.45491537
48	0x3e5aacd0	0.21354985
49	0x3e9a926b	0.30189833
50	0x3c9ef800	0.019405365
51	0x3e0d4564	0.13796002
52	0x3ec2c8c9	0.38043812
53	0x3eb78047	0.35840055
54	0xbd5b8953	-0.05359776
55	0xbd949adf	-0.07256102
56	0x3e703f7a	0.23461714
57	0xbd502d77	-0.05082461
58	0xbd5b1009	-0.05348209
59	0x3ebe3c70	0.37155485
60	0x3e995ef7	0.29955265
61	0x3e6d01f4	0.23145276
62	0x3f0313d5	0.51202136
63	0x3f427382	0.759575
64	0x3df7ee30	0.121059775
65	0x3cf883ff	0.030336378
66	0xbda423e2	-0.080146566
67	0xbe62ad1d	-0.2213635
68	0xbbdbac43	-0.006703885
69	0x3e6a8505	0.22902305
70	0x3ea950b6	0.3306939
71	0x3e58e9ff	0.21183012
72	0x3eecb806	0.4623415
73	0x3e839eb9	0.25707033
74	0x3daed911	0.08537496
75	0x3e961caf	0.2931876
76	0xbd364df5	-0.04450794
77	0xbc7aa4f5	-0.015298118
78	0xbced44bc	-0.02896344
79	0xbc9ded69	-0.019278245
80	0x3e9ec1b8	0.3100717
81	0xbd057a5a	-0.032587387
82	0xbca7fa7c	-0.020505182
83	0x3e888480	0.2666359
84	0x3f159ddd	0.58444005
85	0x3e13d6c5	0.14437397
86	0x3d79c07a	0.060974576
87	0x3eb56191	0.35426
88	0xbe9a56f8	-0.30144477
89	0x3dd2ac09	0.10286719
90	0x3d1002dd	0.03515898
91	0xbebacc9f	-0.36484239
92	0xbe3d2ccb	-0.18474118
93	0x3ecacad4	0.3960787
94	0x3d8b0f2e	0.06790005
95	0x3e2b8933	0.16751556
96	0x3d056d4e	0.032574944
97	0xbc7d309c	-0.015453484
98	0x3eff892d	0.49909344
99	0xbe764e9e	-0.24053428
100	0xbd8135dc	-0.06309101
101	0xbea6e143	-0.32593736
102	0x3edd53c5	0.43227974
103	0x3e1cde39	0.15319146
104	0xbd7c4c76	-0.061596356
105	0x3e8bbeff	0.27294156
106	0x3f011f42	0.5043832
107	0x3e6d3465	0.23164518
108	0xbe194c78	-0.14970577
109	0xbd8e0d86	-0.06936173
110	0x3ed59750	0.41717005
111	0x3e39d6e3	0.18148379
112	0xbe5251dc	-0.2053904
113	0xbd7d21d7	-0.06179985
114	0xbc8b02c2	-0.016969088
115	0xbd242930	-0.040078342
116	0x3e7195b6	0.23592266
117	0xbcebb25f	-0.028771577
118	0x3efff4c2	0.49991423
119	0xbd2e81f4	-0.0426044
120	0xbe169a3e	-0.14707276
121	0x3e838b90	0.25692415
122	0x3e9e792d	0.30951825
123	0xbc7f4c7b	-0.015582199
124	0x3e5912e9	0.2119862
125	0x3e88d979	0.26728418
126	0xbd8dea7b	-0.06929489
127	0xbd81d820	-0.06340051
128	0xbb16b800	-0.0022997856
129	0x3ee0e703	0.43926248
130	0x3ea53460	0.3226652
131	0xbcdd9704	-0.027049549
132	0x3ebcc131	0.36866143
133	0x3eb06fb0	0.3446021
134	0xbddcc15a	-0.107790664
135	0x3eda0f90	0.42589998
136	0x3e1927a5	0.1495653
137	0x3e45f91b	0.19333307
138	0x3f10a47a	0.5650097
139	0x3ec639b3	0.38715896
140	0xbd5755e0	-0.05257213
141	0x3d87cf01	0.0663128
142	0x3d2015c1	0.039083246
143	0xbcc24bd7	-0.023717804
144	0x3f165d5e	0.5873622
145	0xbd75f16f	-0.060044702
146	0x3f25886b	0.6466128
147	0xbd6f1b0b	-0.0583754
148	0x3e4171f1	0.18891121
149	0xbda8d2da	-0.08243342
150	0xbd613a9a	-0.054987527
151	0xbd7a5a74	-0.06112142
152	0x3ddab2e6	0.106786534
153	0xbd53828d	-0.051638175
154	0x3d9e5c56	0.077324554
155	0xbe4df946	-0.20114622
156	0x3ce4ed4a	0.02794518
157	0x3b84bbb6	0.004050697
158	0x3ea47bab	0.321256
159	0x3f3e21b2	0.74270165
160	0xbd8fd49d	-0.07022975
161	0x3efc83d2	0.4931932
162	0xbd73b112	-0.05949504
163	0xbbdbc90e	-0.006707317
164	0xbd119b69	-0.0355486
165	0x3dfde9ae	0.123980865
166	0x3f0a79ae	0.5409192
167	0xbe9f566d	-0.31120625
168	0x3e6cf4cb	0.23140256
169	0xbe07e8b3	-0.13272361
170	0x3ef3d60d	0.47624245
171	0x3e420ff8	0.18951404
172	0x3e039eea	0.1285359
173	0x3e1266ad	0.1429698
174	0x3e8e213c	0.2775973
175	0x3e6169f2	0.22013071
176	0x3f1af0c1	0.6052361
177	0xbcf94389	-0.030427711
178	0x3f2bde69	0.67136246
179	0xbdf278a1	-0.118394144
180	0xbb34f474	-0.0027611526
181	0x3e957c16	0.29196233
182	0xbc9104f3	-0.017702555
183	0xbd1e9015	-0.038711626
184	0x3e197497	0.14985882
185	0xbd5e4c4c	-0.05427198
186	0x3ec414e4	0.38297188
187	0x3a9f0554	0.0012132325
188	0xbd458d50	-0.04823047
189	0x3d08e483	0.03342105
190	0x3e298b76	0.16557106
191	0x3ea292d0	0.31752634
192	0x3d0b0d90	0.03394848
193	0x3e404697	0.18776928
194	0x3b121393	0.00222895
195	0xbc09bfcf	-0.008407547
196	0x3e7b9328	0.24567854
197	0xbe03e6d0	-0.12881017
198	0x3f12bfd4	0.57323956
199	0xbd85ec4c	-0.06539211
200	0xbd143e02	-0.036191948
201	0xbd923f01	-0.07140923
202	0x3ef4021d	0.47657862
203	0xbb97aabf	-0.004628509
204	0x3e3c1c56	0.18370184
205	0x3d635cfe	0.055508606
206	0xbcbd2e0a	-0.023093242
207	0x3f34d900	0.70643616
208	0xbe941ea6	-0.28929633
209	0xbe7debb5	-0.24796946
210	0xbe3ce966	-0.1844841
211	0xbd21ddb1	-0.039518062
212	0x3ee0bd20	0.4389429
213	0x3d48accd	0.04899292
214	0xbd868457	-0.065682106
215	0xbdb647e0	-0.08900428
216	0xbd64457e	-0.055730335
217	0x3b310a18	0.0027014073
218	0xbd9b4a30	-0.075825095
219	0x3e845163	0.25843343
220	0xbd7795fc	-0.06044577
221	0xbcb98b90	-0.022649556
222	0x3e61590e	0.22006628
223	0x3ef42733	0.47686157
224	0xbca6dfc2	-0.020370368
225	0x3e61f842	0.22067359
226	0xbb8b169d	-0.004244639
227	0xbd84ba01	-0.0648079
228	0xbdaad91c	-0.083421916
229	0xbe1eafca	-0.15496746
230	0xbc70dc3d	-0.014700946
231	0x3e6ad7e3	0.22933917
232	0x3e5e6ab5	0.21720393
233	0x3dc218b6	0.094773695
234	0x3ca8d650	0.020610005
235	0x3f0e9773	0.55699843
236	0xbde68113	-0.11255088
237	0xbd1fa7ae	-0.03897827
238	0x3c021361	0.007939191
239	0xbc115f83	-0.008872869
240	0xbc81041f	-0.015749035
241	0x3ea0e7ea	0.31426936
242	0xbe8f0c19	-0.27938917
243	0x3cf63775	0.03005574
244	0xbd4e27ce	-0.05033093
245	0x3ecf639f	0.40505692
246	0x3d21b06e	0.039474897
247	0x3ea52c53	0.3226038
248	0x3e01440f	0.12623619
249	0x3e40acf7	0.18815981
250	0x3e938bd8	0.2881763
251	0xbd6e09d6	-0.05811485
252	0xbd1d4299	-0.03839359
253	0xbde17a8c	-0.11009702
254	0xbd97751f	-0.07395386
255	0x3f002c53	0.50067633

fc2.weight f4 [10, 256]
0	0x3db71184	0.08938888
1	0xbea0f4d7	-0.31436798
2	0xbe61da51	-0.22055937
3	0x3d75e27f	0.060030457
4	0xbd375ffa	-0.044769265
5	0xbcc4e05f	-0.02403277
6	0xbca6b330	-0.020349115
7	0x3cbb5d7c	0.022871725
8	0x3da103d2	0.07862057
9	0xbdff833d	-0.124762036
10	0x3ca14ecd	0.019690895
11	0x3da6fb5e	0.08153413
12	0xbdea731a	-0.11447735
13	0x3cc78a0c	0.024357818
14	0xbcf16b4d	-0.02947011
15	0xbe3921fa	-0.18079367
16	0xbd79383d	-0.06084465
17	0xbd74f98b	-0.059808295
18	0xbde23059	-0.11044378
19	0x3c4bcec5	0.012439434
20	0x3d2baa36	0.041910373
21	0x3e3dcf68	0.1853615
22	0xbc96a4d6	-0.018389147
23	0x3dea4f3f	0.11440896
24	0x3d3d3c53	0.046200108
25	0xbd92b4ea	-0.07163413
26	0xbe03059e	-0.12795112
27	0x3cd9b00b	0.026573202
28	0x3dde403f	0.10852098
29	0xbe4286a3	-0.18996672
30	0x3e17e55c	0.14833587
31	0x3e025307	0.12726985
32	0x3c2e07a0	0.010621935
33	0x3d370af3	0.044688176
34	0x3d3853cb	0.045001786
35	0xbdbf7fb2	-0.09350528
36	0x3c9eeac3	0.019399052
37	0xbe934f79	-0.2877157
38	0x3d814cab	0.063134514
39	0xbd9c7ab7	-0.076405935
40	0x3dba460e	0.09095393
41	0x3dc64018	0.09680194
42	0xbd8b5dda	-0.0680501
43	0x3ac1ca51	0.0014785026
44	0xbd9346ed	-0.071912624
45	0xbd83e9cc	-0.064410776
46	0x3d8b1e99	0.067929454
47	0x3dd7f849	0.105454035
48	0xbd92339a	-0.071387485
49	0x3e097665	0.1342407
50	0xbe6ea1e9	-0.23303951
51	0xbe2a60e0	-0.16638517
52	0x3cd4d362	0.025979701
53	0x3c6eb383	0.014569166
54	0x3cca1620	0.024668753
55	0xbd348837	-0.044075217
56	0xbde3b364	-0.111182004
57	0xbd947c1a	-0.07250233
58	0x3d48441f	0.04889309
59	0xbe0fff80	-0.1406231
60	0x3e05a4fd	0.1305122
61	0x3db95431	0.09049261
62	0xbe386914	-0.18008834
63	0xbe98d7fa	-0.29852277
64	0xbe0dc82a	-0.13845888
65	0xbeb34b6b	-0.35018477
66	0x3cdc47eb	0.026889762
67	0xbc482f44	-0.0122183
68	0xbd9d0fd1	-0.07669032
69	0x3d628b8a	0.055308856
70	0xbe33fb4c	-0.17576331
71	0xbe2558c6	-0.16147146
72	0xbc02dbd5	-0.007986982
73	0xbdc7db34	-0.097586066
74	0x3e10d43f	0.14143465
75	0x3e58cf3f	0.21172808
76	0x3cdb6119	0.026779698
77	0xbd0d7543	-0.034535658
78	0xbda37658	-0.07981557
79	0x3d6db9ca	0.05803851
80	0xbe4ee95d	-0.20206209
81	0xbd7bb123	-0.061448228
82	0xbe667123	-0.22504096
83	0xbc84d2f4	-0.016213872
84	0xbe652a52	-0.22379425
85	0x3e097002	0.13421634
86	0x3d835b20	0.06413865
87	0x3dba1aab	0.09087118
88	0x3d63c59c	0.055608377
89	0x3e0c832a	0.1372191
90	0xbc6162e2	-0.013756486
91	0x3d55a5d0	0.052160084
92	0x3d1d2d38	0.038373202
93	0x3da3f27a	0.08005233
94	0xbdd55d83	-0.104182266
95	0x3e0ad231	0.13556744
96	0x3d77af0c	0.060469672
97	0x3e1d2254	0.15345126
98	0xbe4b135a	-0.19831601
99	0x3d321b82	0.043483265
100	0xbcfcedba	-0.030875076
101	0xbd6a3679	-0.057180855
102	0xbe19ff95	-0.15038903
103	0x3d24b093	0.040207457
104	0xbba64d2d	-0.005075118
105	0x3e0c548f	0.13704132
106	0xbdb74888	-0.08949381
107	0x3e445295	0.19172128
108	0x3d806fda	0.06271334
109	0xbc5d30fb	-0.013500447
110	0xbd699aa0	-0.057032228
111	0x3dedd86a	0.11613543
112	0x3ddaddbe	0.10686825
113	0x3d0015cd	0.03127079
114	0xbd271fba	-0.04080174
115	0xbd863db5	-0.065547384
116	0x3d1a01e8	0.037599474
117	0x3cdad8a3	0.026714629
118	0x3d4bbc9e	0.049740426
119	0x3da8dcdd	0.08245251
120	0x3db28c89	0.08718211
121	0x3d8c38b0	0.0684675
122	0x3d99da4d	0.07512341
123	0xbc183d47	-0.009291953
124	0x3e9c8395	0.3056914
125	0xbdb2be61	-0.08727718
126	0x3d9cd4d7	0.076577835
127	0xbbc1efaa	-0.0059184628
128	0x3d236dd0	0.039899647
129	0x3e5a7eb4	0.21337396
130	0x3d9d5f77	0.07684224
131	0x3b97684e	0.0046205884
132	0xbe07759f	-0.13228463
133	0xbe3ae8cd	-0.18252869
134	0x3daf7a49	0.08568246
135	0xbe29a611	-0.16567256
136	0xbe064793	-0.13113241
137	0xbe47bb4f	-0.19505046
138	0xbe3c0d7c	-0.18364519
139	0xbdb5e777	-0.08882039
140	0x3b83bdf4	0.004020447
141	0xbe112083	-0.14172558
142	0xbd0f370c	-0.034964606
143	0xbdf8209b	-0.12115594
144	0xbe84c775	-0.25933424
145	0xbd0578cd	-0.032585908
146	0xbe9087d9	-0.28228644
147	0xbd52006a	-0.051269926
148	0x3db58ba4	0.08864525
149	0x3e19394f	0.14963268
150	0xbca4f5fc	-0.020136826
151	0xbd8232b6	-0.063573286
152	0xbc3b5a68	-0.011435129
153	0xbd96e8b8	-0.07368606
154	0xbd83e693	-0.06440463
155	0x3e27e089	0.16394247
156	0x3db24c05	0.08705906
157	0xbcac0eaf	-0.021003095
158	0xbe5413b6	-0.20710644
159	0x3e2a0ac8	0.16605675
160	0xbda31bba	-0.07964273
161	0x3dbec4fc	0.093149155
162	0x3c371d13	0.011176365
163	0x3d0c39f0	0.03423494
164	0xbcfc04b3	-0.03076396
165	0x3dca562c	0.09879717
166	0xbc6f45ff	-0.014604091
167	0x3d3307e2	0.04370869
168	0x3d68263d	0.056677092
169	0x3dbdbbb3	0.092643164
170	0xbbfc736e	-0.00770419
171	0x3d877643	0.066143535
172	0x3d2aa062	0.04165686
173	0x3d882b75	0.06648914
174	0xbe03040c	-0.12794513
175	0xbe9bde50	-0.30443048
176	0xbd0cd184	-0.034379497
177	0x3d0b689c	0.03403531
178	0xbd96b34e	-0.073584184
179	0x3d51af5c	0.051192626
180	0xbca23b09	-0.01980354
181	0x3d766414	0.060154036
182	0x3d534f45	0.05158927
183	0x3d44df5b	0.04806457
184	0x3d32a6b8	0.043616027
185	0x3d4713d7	0.048602905
186	0xbe3ef94b	-0.18649785
187	0xbca890d2	-0.020576868
188	0xbcd6dad7	-0.026227398
189	0x3c620db1	0.01379721
190	0xbbb8e6f2	-0.005642765
191	0x3d10211a	0.035187818
192	0x3ccd48aa	0.025059063
193	0xbdbdb0c2	-0.092622295
194	0x3d2dc3a1	0.042422894
195	0x3c8fea97	0.017567916
196	0x3d349526	0.04408755
197	0x3dafb75a	0.085798934
198	0xbca261b0	-0.019821972
199	0xbd80b9a6	-0.0628541
200	0xbd023cd3	-0.031796288
201	0x3cd8ed89	0.026480453
202	0x3c8fbf07	0.017547144
203	0x3cee5223	0.0290919
204	0x3d680a40	0.0566504
205	0x3dbceb42	0.09224559
206	0x3c238305	0.009979968
207	0x3e0425c6	0.12905034
208	0x3dc731d6	0.09726302
209	0x3dfd3689	0.123639174
210	0xbcfe431c	-0.03103786
211	0xba2a615d	-0.00064994936
212	0x3d0ad2df	0.03389251
213	0xbd83f247	-0.06442695
214	0xbdb06564	-0.08613089
215	0xbd45b112	-0.04826457
216	0xbc7ec2b4	-0.0155493505
217	0xbc389dc7	-0.011268086
218	0xbbbc13f4	-0.0057396833
219	0x3d906040	0.07049608
220	0x3c3465d6	0.011010608
221	0x3db54c7e	0.0885248
222	0xbdf7bc7e	-0.12096499
223	0xbe107916	-0.1410869
224	0xbd2dfb00	-0.0424757
225	0x3dc57c5d	0.09642861
226	0xbda982a8	-0.08276874
227	0x3caff82a	0.021480639
228	0xbdb963eb	-0.09052261
229	0x3db244a4	0.087044984
230	0xbcd83248	-0.026391163
231	0xbe81462c	-0.2524885
232	0xbd4849f8	-0.048898667
233	0xbd0fc4f0	-0.035099924
234	0xbcc65373	-0.024209714
235	0xbe247ea6	-0.16063938
236	0x3e0fe8e6	0.14053687
237	0x3d8a2e05	0.06747059
238	0xbdd02374	-0.10163012
239	0x3d0973e5	0.03355779
240	0x3d1286a0	0.03577292
241	0xbd130d18	-0.03590116
242	0xbbab70c2	-0.0052319476
243	0x3dcb4bcc	0.099265665
244	0xbb11c4e1	-0.0022242593
245	0xbec7ef18	-0.39049602
246	0xbd6f93cf	-0.05849057
247	0xbe23b5ad	-0.15987273
248	0xbd94306c	-0.07235798
249	0x3d614834	0.0550005
250	0xbe8c5a03	-0.27412423
251	0xbbacfaba	-0.0052789124
252	0x3c315ad5	0.010824879
253	0xbd52d4ae	-0.05147236
254	0xbd5a1eef	-0.053252157
255	0xbd7682f6	-0.060183488

fc2.bias f4 [10]
0	0xbf07b42e	-0.5300931
1	0xbe94f0b9	-0.29089907
2	0xbe4a5d91	-0.19762255
3	0x3e94d695	0.29069963
4	0x3ecdbe5a	0.4018429
5	0x3b4bba59	0.0031086414
6	0xbcb24fdd	-0.021766597
7	0xbe109d61	-0.14122535
8	0x3e3dc0eb	0.18530624
9	0x3e2e5049	0.17022814
